{"config": {"layers": [{"config": {"batch_input_shape": [null, null, null, 1], "sparse": false, "dtype": "float32", "name": "input0"}, "class_name": "InputLayer", "name": "input0", "inbound_nodes": []}, {"config": {"strides": [1, 1], "kernel_initializer": {"config": {"gain": 1.0, "seed": null}, "class_name": "Orthogonal"}, "trainable": true, "padding": "same", "use_bias": true, "bias_initializer": {"config": {}, "class_name": "Zeros"}, "data_format": "channels_last", "activation": "linear", "kernel_constraint": null, "bias_regularizer": null, "name": "conv1", "kernel_size": [3, 3], "bias_constraint": null, "dilation_rate": [1, 1], "kernel_regularizer": null, "filters": 64, "activity_regularizer": null}, "class_name": "Conv2D", "name": "conv1", "inbound_nodes": [[["input0", 0, 0, {}]]]}, {"config": {"activation": "relu", "name": "relu2", "trainable": true}, "class_name": "Activation", "name": "relu2", "inbound_nodes": [[["conv1", 0, 0, {}]]]}, {"config": {"strides": [1, 1], "kernel_initializer": {"config": {"gain": 1.0, "seed": null}, "class_name": "Orthogonal"}, "trainable": true, "padding": "same", "use_bias": false, "bias_initializer": {"config": {}, "class_name": "Zeros"}, "data_format": "channels_last", "activation": "linear", "kernel_constraint": null, "bias_regularizer": null, "name": "conv3", "kernel_size": [3, 3], "bias_constraint": null, "dilation_rate": [1, 1], "kernel_regularizer": null, "filters": 64, "activity_regularizer": null}, "class_name": "Conv2D", "name": "conv3", "inbound_nodes": [[["relu2", 0, 0, {}]]]}, {"config": {"gamma_constraint": null, "momentum": 0.0, "epsilon": 0.0001, "axis": 3, "moving_mean_initializer": {"config": {}, "class_name": "Zeros"}, "trainable": true, "gamma_initializer": {"config": {}, "class_name": "Ones"}, "moving_variance_initializer": {"config": {}, "class_name": "Ones"}, "scale": true, "gamma_regularizer": null, "beta_initializer": {"config": {}, "class_name": "Zeros"}, "name": "bn4", "beta_constraint": null, "beta_regularizer": null, "center": true}, "class_name": "BatchNormalization", "name": "bn4", "inbound_nodes": [[["conv3", 0, 0, {}]]]}, {"config": {"activation": "relu", "name": "relu5", "trainable": true}, "class_name": "Activation", "name": "relu5", "inbound_nodes": [[["bn4", 0, 0, {}]]]}, {"config": {"strides": [1, 1], "kernel_initializer": {"config": {"gain": 1.0, "seed": null}, "class_name": "Orthogonal"}, "trainable": true, "padding": "same", "use_bias": false, "bias_initializer": {"config": {}, "class_name": "Zeros"}, "data_format": "channels_last", "activation": "linear", "kernel_constraint": null, "bias_regularizer": null, "name": "conv6", "kernel_size": [3, 3], "bias_constraint": null, "dilation_rate": [1, 1], "kernel_regularizer": null, "filters": 64, "activity_regularizer": null}, "class_name": "Conv2D", "name": "conv6", "inbound_nodes": [[["relu5", 0, 0, {}]]]}, {"config": {"gamma_constraint": null, "momentum": 0.0, "epsilon": 0.0001, "axis": 3, "moving_mean_initializer": {"config": {}, "class_name": "Zeros"}, "trainable": true, "gamma_initializer": {"config": {}, "class_name": "Ones"}, "moving_variance_initializer": {"config": {}, "class_name": "Ones"}, "scale": true, "gamma_regularizer": null, "beta_initializer": {"config": {}, "class_name": "Zeros"}, "name": "bn7", "beta_constraint": null, "beta_regularizer": null, "center": true}, "class_name": "BatchNormalization", "name": "bn7", "inbound_nodes": [[["conv6", 0, 0, {}]]]}, {"config": {"activation": "relu", "name": "relu8", "trainable": true}, "class_name": "Activation", "name": "relu8", "inbound_nodes": [[["bn7", 0, 0, {}]]]}, {"config": {"strides": [1, 1], "kernel_initializer": {"config": {"gain": 1.0, "seed": null}, "class_name": "Orthogonal"}, "trainable": true, "padding": "same", "use_bias": false, "bias_initializer": {"config": {}, "class_name": "Zeros"}, "data_format": "channels_last", "activation": "linear", "kernel_constraint": null, "bias_regularizer": null, "name": "conv9", "kernel_size": [3, 3], "bias_constraint": null, "dilation_rate": [1, 1], "kernel_regularizer": null, "filters": 64, "activity_regularizer": null}, "class_name": "Conv2D", "name": "conv9", "inbound_nodes": [[["relu8", 0, 0, {}]]]}, {"config": {"gamma_constraint": null, "momentum": 0.0, "epsilon": 0.0001, "axis": 3, "moving_mean_initializer": {"config": {}, "class_name": "Zeros"}, "trainable": true, "gamma_initializer": {"config": {}, "class_name": "Ones"}, "moving_variance_initializer": {"config": {}, "class_name": "Ones"}, "scale": true, "gamma_regularizer": null, "beta_initializer": {"config": {}, "class_name": "Zeros"}, "name": "bn10", "beta_constraint": null, "beta_regularizer": null, "center": true}, "class_name": "BatchNormalization", "name": "bn10", "inbound_nodes": [[["conv9", 0, 0, {}]]]}, {"config": {"activation": "relu", "name": "relu11", "trainable": true}, "class_name": "Activation", "name": "relu11", "inbound_nodes": [[["bn10", 0, 0, {}]]]}, {"config": {"strides": [1, 1], "kernel_initializer": {"config": {"gain": 1.0, "seed": null}, "class_name": "Orthogonal"}, "trainable": true, "padding": "same", "use_bias": false, "bias_initializer": {"config": {}, "class_name": "Zeros"}, "data_format": "channels_last", "activation": "linear", "kernel_constraint": null, "bias_regularizer": null, "name": "conv12", "kernel_size": [3, 3], "bias_constraint": null, "dilation_rate": [1, 1], "kernel_regularizer": null, "filters": 64, "activity_regularizer": null}, "class_name": "Conv2D", "name": "conv12", "inbound_nodes": [[["relu11", 0, 0, {}]]]}, {"config": {"gamma_constraint": null, "momentum": 0.0, "epsilon": 0.0001, "axis": 3, "moving_mean_initializer": {"config": {}, "class_name": "Zeros"}, "trainable": true, "gamma_initializer": {"config": {}, "class_name": "Ones"}, "moving_variance_initializer": {"config": {}, "class_name": "Ones"}, "scale": true, "gamma_regularizer": null, "beta_initializer": {"config": {}, "class_name": "Zeros"}, "name": "bn13", "beta_constraint": null, "beta_regularizer": null, "center": true}, "class_name": "BatchNormalization", "name": "bn13", "inbound_nodes": [[["conv12", 0, 0, {}]]]}, {"config": {"activation": "relu", "name": "relu14", "trainable": true}, "class_name": "Activation", "name": "relu14", "inbound_nodes": [[["bn13", 0, 0, {}]]]}, {"config": {"strides": [1, 1], "kernel_initializer": {"config": {"gain": 1.0, "seed": null}, "class_name": "Orthogonal"}, "trainable": true, "padding": "same", "use_bias": false, "bias_initializer": {"config": {}, "class_name": "Zeros"}, "data_format": "channels_last", "activation": "linear", "kernel_constraint": null, "bias_regularizer": null, "name": "conv15", "kernel_size": [3, 3], "bias_constraint": null, "dilation_rate": [1, 1], "kernel_regularizer": null, "filters": 64, "activity_regularizer": null}, "class_name": "Conv2D", "name": "conv15", "inbound_nodes": [[["relu14", 0, 0, {}]]]}, {"config": {"gamma_constraint": null, "momentum": 0.0, "epsilon": 0.0001, "axis": 3, "moving_mean_initializer": {"config": {}, "class_name": "Zeros"}, "trainable": true, "gamma_initializer": {"config": {}, "class_name": "Ones"}, "moving_variance_initializer": {"config": {}, "class_name": "Ones"}, "scale": true, "gamma_regularizer": null, "beta_initializer": {"config": {}, "class_name": "Zeros"}, "name": "bn16", "beta_constraint": null, "beta_regularizer": null, "center": true}, "class_name": "BatchNormalization", "name": "bn16", "inbound_nodes": [[["conv15", 0, 0, {}]]]}, {"config": {"activation": "relu", "name": "relu17", "trainable": true}, "class_name": "Activation", "name": "relu17", "inbound_nodes": [[["bn16", 0, 0, {}]]]}, {"config": {"strides": [1, 1], "kernel_initializer": {"config": {"gain": 1.0, "seed": null}, "class_name": "Orthogonal"}, "trainable": true, "padding": "same", "use_bias": false, "bias_initializer": {"config": {}, "class_name": "Zeros"}, "data_format": "channels_last", "activation": "linear", "kernel_constraint": null, "bias_regularizer": null, "name": "conv18", "kernel_size": [3, 3], "bias_constraint": null, "dilation_rate": [1, 1], "kernel_regularizer": null, "filters": 64, "activity_regularizer": null}, "class_name": "Conv2D", "name": "conv18", "inbound_nodes": [[["relu17", 0, 0, {}]]]}, {"config": {"gamma_constraint": null, "momentum": 0.0, "epsilon": 0.0001, "axis": 3, "moving_mean_initializer": {"config": {}, "class_name": "Zeros"}, "trainable": true, "gamma_initializer": {"config": {}, "class_name": "Ones"}, "moving_variance_initializer": {"config": {}, "class_name": "Ones"}, "scale": true, "gamma_regularizer": null, "beta_initializer": {"config": {}, "class_name": "Zeros"}, "name": "bn19", "beta_constraint": null, "beta_regularizer": null, "center": true}, "class_name": "BatchNormalization", "name": "bn19", "inbound_nodes": [[["conv18", 0, 0, {}]]]}, {"config": {"activation": "relu", "name": "relu20", "trainable": true}, "class_name": "Activation", "name": "relu20", "inbound_nodes": [[["bn19", 0, 0, {}]]]}, {"config": {"strides": [1, 1], "kernel_initializer": {"config": {"gain": 1.0, "seed": null}, "class_name": "Orthogonal"}, "trainable": true, "padding": "same", "use_bias": false, "bias_initializer": {"config": {}, "class_name": "Zeros"}, "data_format": "channels_last", "activation": "linear", "kernel_constraint": null, "bias_regularizer": null, "name": "conv21", "kernel_size": [3, 3], "bias_constraint": null, "dilation_rate": [1, 1], "kernel_regularizer": null, "filters": 64, "activity_regularizer": null}, "class_name": "Conv2D", "name": "conv21", "inbound_nodes": [[["relu20", 0, 0, {}]]]}, {"config": {"gamma_constraint": null, "momentum": 0.0, "epsilon": 0.0001, "axis": 3, "moving_mean_initializer": {"config": {}, "class_name": "Zeros"}, "trainable": true, "gamma_initializer": {"config": {}, "class_name": "Ones"}, "moving_variance_initializer": {"config": {}, "class_name": "Ones"}, "scale": true, "gamma_regularizer": null, "beta_initializer": {"config": {}, "class_name": "Zeros"}, "name": "bn22", "beta_constraint": null, "beta_regularizer": null, "center": true}, "class_name": "BatchNormalization", "name": "bn22", "inbound_nodes": [[["conv21", 0, 0, {}]]]}, {"config": {"activation": "relu", "name": "relu23", "trainable": true}, "class_name": "Activation", "name": "relu23", "inbound_nodes": [[["bn22", 0, 0, {}]]]}, {"config": {"strides": [1, 1], "kernel_initializer": {"config": {"gain": 1.0, "seed": null}, "class_name": "Orthogonal"}, "trainable": true, "padding": "same", "use_bias": false, "bias_initializer": {"config": {}, "class_name": "Zeros"}, "data_format": "channels_last", "activation": "linear", "kernel_constraint": null, "bias_regularizer": null, "name": "conv24", "kernel_size": [3, 3], "bias_constraint": null, "dilation_rate": [1, 1], "kernel_regularizer": null, "filters": 64, "activity_regularizer": null}, "class_name": "Conv2D", "name": "conv24", "inbound_nodes": [[["relu23", 0, 0, {}]]]}, {"config": {"gamma_constraint": null, "momentum": 0.0, "epsilon": 0.0001, "axis": 3, "moving_mean_initializer": {"config": {}, "class_name": "Zeros"}, "trainable": true, "gamma_initializer": {"config": {}, "class_name": "Ones"}, "moving_variance_initializer": {"config": {}, "class_name": "Ones"}, "scale": true, "gamma_regularizer": null, "beta_initializer": {"config": {}, "class_name": "Zeros"}, "name": "bn25", "beta_constraint": null, "beta_regularizer": null, "center": true}, "class_name": "BatchNormalization", "name": "bn25", "inbound_nodes": [[["conv24", 0, 0, {}]]]}, {"config": {"activation": "relu", "name": "relu26", "trainable": true}, "class_name": "Activation", "name": "relu26", "inbound_nodes": [[["bn25", 0, 0, {}]]]}, {"config": {"strides": [1, 1], "kernel_initializer": {"config": {"gain": 1.0, "seed": null}, "class_name": "Orthogonal"}, "trainable": true, "padding": "same", "use_bias": false, "bias_initializer": {"config": {}, "class_name": "Zeros"}, "data_format": "channels_last", "activation": "linear", "kernel_constraint": null, "bias_regularizer": null, "name": "conv27", "kernel_size": [3, 3], "bias_constraint": null, "dilation_rate": [1, 1], "kernel_regularizer": null, "filters": 64, "activity_regularizer": null}, "class_name": "Conv2D", "name": "conv27", "inbound_nodes": [[["relu26", 0, 0, {}]]]}, {"config": {"gamma_constraint": null, "momentum": 0.0, "epsilon": 0.0001, "axis": 3, "moving_mean_initializer": {"config": {}, "class_name": "Zeros"}, "trainable": true, "gamma_initializer": {"config": {}, "class_name": "Ones"}, "moving_variance_initializer": {"config": {}, "class_name": "Ones"}, "scale": true, "gamma_regularizer": null, "beta_initializer": {"config": {}, "class_name": "Zeros"}, "name": "bn28", "beta_constraint": null, "beta_regularizer": null, "center": true}, "class_name": "BatchNormalization", "name": "bn28", "inbound_nodes": [[["conv27", 0, 0, {}]]]}, {"config": {"activation": "relu", "name": "relu29", "trainable": true}, "class_name": "Activation", "name": "relu29", "inbound_nodes": [[["bn28", 0, 0, {}]]]}, {"config": {"strides": [1, 1], "kernel_initializer": {"config": {"gain": 1.0, "seed": null}, "class_name": "Orthogonal"}, "trainable": true, "padding": "same", "use_bias": false, "bias_initializer": {"config": {}, "class_name": "Zeros"}, "data_format": "channels_last", "activation": "linear", "kernel_constraint": null, "bias_regularizer": null, "name": "conv30", "kernel_size": [3, 3], "bias_constraint": null, "dilation_rate": [1, 1], "kernel_regularizer": null, "filters": 64, "activity_regularizer": null}, "class_name": "Conv2D", "name": "conv30", "inbound_nodes": [[["relu29", 0, 0, {}]]]}, {"config": {"gamma_constraint": null, "momentum": 0.0, "epsilon": 0.0001, "axis": 3, "moving_mean_initializer": {"config": {}, "class_name": "Zeros"}, "trainable": true, "gamma_initializer": {"config": {}, "class_name": "Ones"}, "moving_variance_initializer": {"config": {}, "class_name": "Ones"}, "scale": true, "gamma_regularizer": null, "beta_initializer": {"config": {}, "class_name": "Zeros"}, "name": "bn31", "beta_constraint": null, "beta_regularizer": null, "center": true}, "class_name": "BatchNormalization", "name": "bn31", "inbound_nodes": [[["conv30", 0, 0, {}]]]}, {"config": {"activation": "relu", "name": "relu32", "trainable": true}, "class_name": "Activation", "name": "relu32", "inbound_nodes": [[["bn31", 0, 0, {}]]]}, {"config": {"strides": [1, 1], "kernel_initializer": {"config": {"gain": 1.0, "seed": null}, "class_name": "Orthogonal"}, "trainable": true, "padding": "same", "use_bias": false, "bias_initializer": {"config": {}, "class_name": "Zeros"}, "data_format": "channels_last", "activation": "linear", "kernel_constraint": null, "bias_regularizer": null, "name": "conv33", "kernel_size": [3, 3], "bias_constraint": null, "dilation_rate": [1, 1], "kernel_regularizer": null, "filters": 64, "activity_regularizer": null}, "class_name": "Conv2D", "name": "conv33", "inbound_nodes": [[["relu32", 0, 0, {}]]]}, {"config": {"gamma_constraint": null, "momentum": 0.0, "epsilon": 0.0001, "axis": 3, "moving_mean_initializer": {"config": {}, "class_name": "Zeros"}, "trainable": true, "gamma_initializer": {"config": {}, "class_name": "Ones"}, "moving_variance_initializer": {"config": {}, "class_name": "Ones"}, "scale": true, "gamma_regularizer": null, "beta_initializer": {"config": {}, "class_name": "Zeros"}, "name": "bn34", "beta_constraint": null, "beta_regularizer": null, "center": true}, "class_name": "BatchNormalization", "name": "bn34", "inbound_nodes": [[["conv33", 0, 0, {}]]]}, {"config": {"activation": "relu", "name": "relu35", "trainable": true}, "class_name": "Activation", "name": "relu35", "inbound_nodes": [[["bn34", 0, 0, {}]]]}, {"config": {"strides": [1, 1], "kernel_initializer": {"config": {"gain": 1.0, "seed": null}, "class_name": "Orthogonal"}, "trainable": true, "padding": "same", "use_bias": false, "bias_initializer": {"config": {}, "class_name": "Zeros"}, "data_format": "channels_last", "activation": "linear", "kernel_constraint": null, "bias_regularizer": null, "name": "conv36", "kernel_size": [3, 3], "bias_constraint": null, "dilation_rate": [1, 1], "kernel_regularizer": null, "filters": 64, "activity_regularizer": null}, "class_name": "Conv2D", "name": "conv36", "inbound_nodes": [[["relu35", 0, 0, {}]]]}, {"config": {"gamma_constraint": null, "momentum": 0.0, "epsilon": 0.0001, "axis": 3, "moving_mean_initializer": {"config": {}, "class_name": "Zeros"}, "trainable": true, "gamma_initializer": {"config": {}, "class_name": "Ones"}, "moving_variance_initializer": {"config": {}, "class_name": "Ones"}, "scale": true, "gamma_regularizer": null, "beta_initializer": {"config": {}, "class_name": "Zeros"}, "name": "bn37", "beta_constraint": null, "beta_regularizer": null, "center": true}, "class_name": "BatchNormalization", "name": "bn37", "inbound_nodes": [[["conv36", 0, 0, {}]]]}, {"config": {"activation": "relu", "name": "relu38", "trainable": true}, "class_name": "Activation", "name": "relu38", "inbound_nodes": [[["bn37", 0, 0, {}]]]}, {"config": {"strides": [1, 1], "kernel_initializer": {"config": {"gain": 1.0, "seed": null}, "class_name": "Orthogonal"}, "trainable": true, "padding": "same", "use_bias": false, "bias_initializer": {"config": {}, "class_name": "Zeros"}, "data_format": "channels_last", "activation": "linear", "kernel_constraint": null, "bias_regularizer": null, "name": "conv39", "kernel_size": [3, 3], "bias_constraint": null, "dilation_rate": [1, 1], "kernel_regularizer": null, "filters": 64, "activity_regularizer": null}, "class_name": "Conv2D", "name": "conv39", "inbound_nodes": [[["relu38", 0, 0, {}]]]}, {"config": {"gamma_constraint": null, "momentum": 0.0, "epsilon": 0.0001, "axis": 3, "moving_mean_initializer": {"config": {}, "class_name": "Zeros"}, "trainable": true, "gamma_initializer": {"config": {}, "class_name": "Ones"}, "moving_variance_initializer": {"config": {}, "class_name": "Ones"}, "scale": true, "gamma_regularizer": null, "beta_initializer": {"config": {}, "class_name": "Zeros"}, "name": "bn40", "beta_constraint": null, "beta_regularizer": null, "center": true}, "class_name": "BatchNormalization", "name": "bn40", "inbound_nodes": [[["conv39", 0, 0, {}]]]}, {"config": {"activation": "relu", "name": "relu41", "trainable": true}, "class_name": "Activation", "name": "relu41", "inbound_nodes": [[["bn40", 0, 0, {}]]]}, {"config": {"strides": [1, 1], "kernel_initializer": {"config": {"gain": 1.0, "seed": null}, "class_name": "Orthogonal"}, "trainable": true, "padding": "same", "use_bias": false, "bias_initializer": {"config": {}, "class_name": "Zeros"}, "data_format": "channels_last", "activation": "linear", "kernel_constraint": null, "bias_regularizer": null, "name": "conv42", "kernel_size": [3, 3], "bias_constraint": null, "dilation_rate": [1, 1], "kernel_regularizer": null, "filters": 64, "activity_regularizer": null}, "class_name": "Conv2D", "name": "conv42", "inbound_nodes": [[["relu41", 0, 0, {}]]]}, {"config": {"gamma_constraint": null, "momentum": 0.0, "epsilon": 0.0001, "axis": 3, "moving_mean_initializer": {"config": {}, "class_name": "Zeros"}, "trainable": true, "gamma_initializer": {"config": {}, "class_name": "Ones"}, "moving_variance_initializer": {"config": {}, "class_name": "Ones"}, "scale": true, "gamma_regularizer": null, "beta_initializer": {"config": {}, "class_name": "Zeros"}, "name": "bn43", "beta_constraint": null, "beta_regularizer": null, "center": true}, "class_name": "BatchNormalization", "name": "bn43", "inbound_nodes": [[["conv42", 0, 0, {}]]]}, {"config": {"activation": "relu", "name": "relu44", "trainable": true}, "class_name": "Activation", "name": "relu44", "inbound_nodes": [[["bn43", 0, 0, {}]]]}, {"config": {"strides": [1, 1], "kernel_initializer": {"config": {"gain": 1.0, "seed": null}, "class_name": "Orthogonal"}, "trainable": true, "padding": "same", "use_bias": false, "bias_initializer": {"config": {}, "class_name": "Zeros"}, "data_format": "channels_last", "activation": "linear", "kernel_constraint": null, "bias_regularizer": null, "name": "conv45", "kernel_size": [3, 3], "bias_constraint": null, "dilation_rate": [1, 1], "kernel_regularizer": null, "filters": 64, "activity_regularizer": null}, "class_name": "Conv2D", "name": "conv45", "inbound_nodes": [[["relu44", 0, 0, {}]]]}, {"config": {"gamma_constraint": null, "momentum": 0.0, "epsilon": 0.0001, "axis": 3, "moving_mean_initializer": {"config": {}, "class_name": "Zeros"}, "trainable": true, "gamma_initializer": {"config": {}, "class_name": "Ones"}, "moving_variance_initializer": {"config": {}, "class_name": "Ones"}, "scale": true, "gamma_regularizer": null, "beta_initializer": {"config": {}, "class_name": "Zeros"}, "name": "bn46", "beta_constraint": null, "beta_regularizer": null, "center": true}, "class_name": "BatchNormalization", "name": "bn46", "inbound_nodes": [[["conv45", 0, 0, {}]]]}, {"config": {"activation": "relu", "name": "relu47", "trainable": true}, "class_name": "Activation", "name": "relu47", "inbound_nodes": [[["bn46", 0, 0, {}]]]}, {"config": {"strides": [1, 1], "kernel_initializer": {"config": {"gain": 1.0, "seed": null}, "class_name": "Orthogonal"}, "trainable": true, "padding": "same", "use_bias": false, "bias_initializer": {"config": {}, "class_name": "Zeros"}, "data_format": "channels_last", "activation": "linear", "kernel_constraint": null, "bias_regularizer": null, "name": "conv48", "kernel_size": [3, 3], "bias_constraint": null, "dilation_rate": [1, 1], "kernel_regularizer": null, "filters": 1, "activity_regularizer": null}, "class_name": "Conv2D", "name": "conv48", "inbound_nodes": [[["relu47", 0, 0, {}]]]}, {"config": {"name": "subtract49", "trainable": true}, "class_name": "Subtract", "name": "subtract49", "inbound_nodes": [[["input0", 0, 0, {}], ["conv48", 0, 0, {}]]]}], "name": "model_1", "output_layers": [["subtract49", 0, 0]], "input_layers": [["input0", 0, 0]]}, "class_name": "Model", "backend": "tensorflow", "keras_version": "2.1.3"}